data/models/nn_model.pt (torch, 89807 bytes, 8 tensors)

hidden1.weight f4 [48, 422]
0	0x3d424c16	0.047435842
1	0x3d067686	0.032827877
2	0x3cd1d48f	0.025614051
3	0xbcf14d37	-0.029455764
4	0x3c9f4be8	0.019445375
5	0x3d91068c	0.07081327
6	0x3cd658b2	0.02616534
7	0x3d5931f1	0.053026143
8	0xbc9d6b4c	-0.019216202
9	0x3ca16684	0.019702204
10	0xbd3f16b5	-0.046652514
11	0xbdf28e2f	-0.118435256
12	0xbd5605dc	-0.05225168
13	0xbe043867	-0.12912141
14	0xbe6cb5bc	-0.23116201
15	0xbec802d2	-0.39064652
16	0xbf35ae67	-0.7096924
17	0xbfa68681	-1.3009797
18	0xbfe4354f	-1.7828768
19	0xc015cba2	-2.3405538
20	0xc077d3e4	-3.8723078
21	0xc0891b89	-4.284611
22	0xc0655c86	-3.5837722
23	0xc00a4e8a	-2.1610436
24	0xbf949d5b	-1.1610521
25	0xbf96eb2b	-1.1790518
26	0xbf9eace9	-1.2396518
27	0xc00c8685	-2.1957104
28	0xc04dbca2	-3.2146382
29	0xc096761d	-4.701918
30	0xc0b819f5	-5.7531686
31	0xc0d3a0d1	-6.613381
32	0xc0a62efc	-5.1932354
33	0xc01f9261	-2.4933093
34	0xbfe3804d	-1.7773529
35	0xc06eec78	-3.733183
36	0xc0af8c54	-5.48588
37	0xc0c20373	-6.062921
38	0xc0baabd8	-5.833477
39	0xc0a1efe7	-5.060535
40	0xc0956008	-4.6679726
41	0xc0785817	-3.8803766
42	0xc0231e3d	-2.5487206
43	0xbfb3b167	-1.4038514
44	0xbf624a63	-0.88394755
45	0xbea54bc5	-0.3228437
46	0xbf30be2a	-0.6904017
47	0xbf9edf4b	-1.2411894
48	0xbfec28b9	-1.8449928
49	0xc03a6e38	-2.9129772
50	0xc0527e1b	-3.2889469
51	0xc0485e4f	-3.1307561
52	0xc019822b	-2.3985698
53	0xc069c042	-3.6523595
54	0xc0dac928	-6.837055
55	0xc0c8fbf8	-6.280758
56	0xc09ec96d	-4.962088
57	0xc099e722	-4.8094645
58	0xc0921a88	-4.5657387
59	0xbf0e5a61	-0.5560666
60	0xbeb195b8	-0.3468454
61	0xbf9cff5d	-1.2265431
62	0xc00cbde4	-2.19909
63	0xc06a2caa	-3.658976
64	0xc07d6faf	-3.9599416
65	0xc08551d8	-4.1662407
66	0xc079abcb	-3.9011104
67	0xc03f7dfb	-2.9920642
68	0xc01d5b9d	-2.4587166
69	0xbfb323ef	-1.3995341
70	0xbf56a5d9	-0.83846813
71	0xbf2ee887	-0.6832356
72	0xbf0212e6	-0.50810087
73	0xbefe6561	-0.4968672
74	0xbe769311	-0.24079539
75	0xbea90465	-0.33011165
76	0xbe326227	-0.17420255
77	0xbdb311d4	-0.08743635
78	0xbe1bd3cb	-0.15217511
79	0xbe079017	-0.1323856
80	0x3c8d11da	0.017220426
81	0xbe02733c	-0.12739271
82	0xbcc798c1	-0.02436483
83	0x3dadaac1	0.08479834
84	0xbde25b0f	-0.11052524
85	0x3dbbfc92	0.09179033
86	0x3d80f57b	0.06296822
87	0xbd47fad4	-0.048823193
88	0x3cd7900a	0.0263138
89	0xbd203da3	-0.03912128
90	0xbd935fa8	-0.07195979
91	0x3d2c659c	0.04208909
92	0xbc55c9ac	-0.013048571
93	0x3cbfe7d2	0.02342597
94	0x3db7fe28	0.08984023
95	0xbcd8eb24	-0.026479311
96	0xbd1079d3	-0.03527243
97	0xbe0e8509	-0.13917936
98	0xbe1d0373	-0.15333347
99	0xbe09ded3	-0.13463907
100	0xbe309384	-0.17243773
101	0xbcfb4998	-0.03067474
102	0xbe4acd18	-0.198048
103	0xbe28f69f	-0.16500328
104	0xbdbe93b2	-0.093055144
105	0xbec3f251	-0.3827081
106	0xbee9b42d	-0.45645276
107	0xbf403fdd	-0.7509745
108	0xbf778130	-0.966815
109	0xbfeeee3e	-1.8666456
110	0xc0564cf7	-3.3484476
111	0xc0b285ce	-5.5788336
112	0xc0ef0413	-7.4692473
113	0xc10e51ae	-8.894941
114	0xc118ecb9	-9.557794
115	0xc112b258	-9.168541
116	0xc0f218bc	-7.5655193
117	0xc0b197cd	-5.5497804
118	0xc08a9d01	-4.3316655
119	0xc0558071	-3.3359644
120	0xbfca53d0	-1.5806828
121	0xc02ef63d	-2.7337792
122	0xc0de651e	-6.9498434
123	0xc11beb60	-9.744965
124	0xc1257c3a	-10.342829
125	0xc0f43900	-7.631958
126	0xc095e23d	-4.683867
127	0xc060062e	-3.5003772
128	0xc025be36	-2.5897346
129	0xc0a2c762	-5.0868387
130	0xc0f410c9	-7.627049
131	0xc0f79657	-7.737102
132	0xc0f84a08	-7.759037
133	0xc0f68b39	-7.704495
134	0xc0fc5d3b	-7.8863807
135	0xc0d2bf81	-6.585877
136	0xc0a2546e	-5.0728064
137	0xc059e4d4	-3.4045916
138	0xc0202ead	-2.5028489
139	0xc0460097	-3.093786
140	0xc0931b7f	-4.5971065
141	0xc0dd4f8a	-6.9159594
142	0xc10cc484	-8.797977
143	0xc11656d2	-9.396196
144	0xc1077e26	-8.468298
145	0xc0db3695	-6.850413
146	0xc0e60798	-7.188427
147	0xc102c682	-8.173464
148	0xc0a7abdb	-5.2397285
149	0xc029cd43	-2.6531532
150	0xbf8d8c28	-1.1058397
151	0xbf4c7002	-0.7985841
152	0xbf0a3fb9	-0.54003483
153	0x40137e85	2.3045971
154	0xbeadc898	-0.33942103
155	0xc04827bb	-3.127425
156	0xc0c28a98	-6.079418
157	0xc0ff5755	-7.9794106
158	0xc10e85cb	-8.907664
159	0xc10df16c	-8.871441
160	0xc1056e20	-8.339386
161	0xc0d65f2f	-6.699119
162	0xc09ed5fe	-4.963622
163	0xc04c751e	-3.1946483
164	0xc009997f	-2.1499937
165	0xbfb47153	-1.4097084
166	0xbf9199cd	-1.1375061
167	0xbf63b4f2	-0.88947976
168	0xbf041181	-0.5158921
169	0xbea7ec45	-0.32797447
170	0xbebcf4df	-0.36905572
171	0xbe92233e	-0.28542513
172	0xbe08eaa8	-0.13370764
173	0xbe87747b	-0.26456055
174	0xbea55d7c	-0.32297885
175	0xbeba83b1	-0.36428598
176	0xbeb72c50	-0.35775995
177	0xbf14d970	-0.58144283
178	0xbeef2088	-0.46704507
179	0xbf041cd7	-0.51606506
180	0xbefe0e6b	-0.49620375
181	0xbf198a10	-0.5997629
182	0xbf06bddd	-0.5263346
183	0xbee21552	-0.4415689
184	0xbf365206	-0.7121891
185	0xbf3b8061	-0.73242766
186	0xbf4bd4b2	-0.7962142
187	0xbf8674b1	-1.0504361
188	0xbf98bfc0	-1.1933517
189	0xc017d5a6	-2.372415
190	0xc06b96d5	-3.681081
191	0xc0a38a5e	-5.1106405
192	0xc0caea92	-6.341134
193	0xc0d963c1	-6.793427
194	0xc0d10464	-6.531786
195	0xc09c4bd5	-4.884257
196	0xc02907f1	-2.6411097
197	0xbf9a1af3	-1.2039474
198	0x3feee4dc	1.8663592
199	0x4082d8f5	4.088984
200	0x4039f35d	2.9054787
201	0xc00e943e	-2.227798
202	0xc0cb7d9d	-6.3590837
203	0xc0e36c6e	-7.106986
204	0xc09dcf6a	-4.931569
205	0xc007896b	-2.1177623
206	0xbf588e17	-0.8459181
207	0xbf1d58a2	-0.6146337
208	0xc0605149	-3.5049613
209	0xc0b2f493	-5.5923553
210	0xc0ba615b	-5.824384
211	0xc0b737e7	-5.725574
212	0xc0a9d6aa	-5.307454
213	0xc09bf90b	-4.8741508
214	0xc060f0b2	-3.5146909
215	0xc00d09dc	-2.2037268
216	0xbf3497cb	-0.7054412
217	0x3e70f610	0.23531365
218	0xbe3e6a3d	-0.18595214
219	0xbf9c5420	-1.2213173
220	0xc04d4b00	-3.2077026
221	0xc092fd8f	-4.593452
222	0xc0bbbd7f	-5.866882
223	0xc0b204ab	-5.56307
224	0xc08d17b8	-4.4091454
225	0xc0b1868f	-5.5476756
226	0xc0e35c86	-7.1050444
227	0xc08fa882	-4.48932
228	0xbfe51bf4	-1.7899156
229	0xbf6c2470	-0.922431
230	0xbfa4b0b2	-1.2866423
231	0xbe9d87aa	-0.30767566
232	0x4028535e	2.6300883
233	0x3fa29516	1.2701747
234	0xbf89dfbf	-1.0771407
235	0xc06914c8	-3.6418934
236	0xc0b07721	-5.514542
237	0xc0d073b2	-6.514123
238	0xc0d9aa8b	-6.802068
239	0xc0c16eef	-6.0447917
240	0xc08d4365	-4.414477
241	0xc043679b	-3.0531986
242	0xbfdef754	-1.7419229
243	0xbf997ff0	-1.1992168
244	0xbf57865b	-0.84189385
245	0xbf095477	-0.5364451
246	0xbe9ac5c5	-0.3022901
247	0xbe3b7e82	-0.18309978
248	0xbda26a9a	-0.07930489
249	0xbe5277d4	-0.20553523
250	0xbea00bd6	-0.3125903
251	0xbef6d6df	-0.4821081
252	0xbf4d7df9	-0.80270344
253	0xbfa63f63	-1.2988094
254	0xc0404b74	-3.0046053
255	0xc0a47da1	-5.1403356

hidden1.bias f4 [48]
0	0xc328cf74	-168.81036
1	0xc35b95c9	-219.5851
2	0xc3508293	-208.51006
3	0xc33b4547	-187.27061
4	0xbe504b0a	-0.20341125
5	0xc28d1ec5	-70.5601
6	0xc2775017	-61.828213
7	0xc36ca685	-236.65047
8	0xc26a650b	-58.598675
9	0x43b1cd4e	355.60394
10	0xc3e19deb	-451.23373
11	0xc4009425	-514.31476
12	0xc3f238d1	-484.44388
13	0xc40bbf71	-558.9913
14	0xc34da346	-205.63779
15	0x439ab4e1	309.41312
16	0xc2d11ea2	-104.55983
17	0xc215f667	-37.490627
18	0x41383164	11.512058
19	0x42aabfbe	85.3745
20	0xc38f0360	-286.02637
21	0xc01cc3eb	-2.449458
22	0xc068859d	-3.633155
23	0xc25e220b	-55.533245
24	0xc3b726b2	-366.3023
25	0xc302e45a	-130.892
26	0xc3a99399	-339.1531
27	0xc38ff76d	-287.933
28	0xc398789f	-304.94235
29	0xc11ea7e7	-9.915992
30	0x4389eb91	275.84036
31	0xc3165b7e	-150.35739
32	0xc39dc600	-315.54688
33	0xc388ac0b	-273.3441
34	0xc39be7f5	-311.81216
35	0xc33984c0	-185.51855
36	0xc332eaea	-178.91763
37	0xc303f9f1	-131.97633
38	0xc3fbc2e3	-503.52255
39	0xc43b41e1	-749.02936
40	0xc3dac8a7	-437.5676
41	0xc352bea6	-210.74472
42	0xc307da59	-135.85292
43	0xc31f7086	-159.43954
44	0x43edda41	475.7051
45	0xc4197b7c	-613.92944
46	0xc34cefe2	-204.93704
47	0x4225fe42	41.4983

hidden2.weight f4 [24, 48]
0	0x4145b6e7	12.357154
1	0xc0b98e95	-5.798655
2	0xc0a01e52	-5.003701
3	0x415d7b29	13.842568
4	0x3e5f82d1	0.21827246
5	0x41932a46	18.395641
6	0xbf506617	-0.81405777
7	0x40a91ba2	5.284623
8	0xbf963783	-1.1735691
9	0xc1016a12	-8.088396
10	0xc13bad95	-11.729878
11	0xc2d8a73b	-108.32662
12	0xc1ce1604	-25.76075
13	0xc2895e70	-68.68445
14	0xc20859be	-34.08764
15	0x3ffc4806	1.970948
16	0xc0c52c8c	-6.161688
17	0xbfc5344a	-1.5406582
18	0xc10d41d1	-8.828568
19	0xbd0b890b	-0.03406624
20	0x4102ed54	8.182941
21	0x3df8dd67	0.12151604
22	0xbec61c29	-0.3869336
23	0x3f01202f	0.50439733
24	0x40ef5ed1	7.4803243
25	0xc19e155c	-19.76043
26	0xc22afd5d	-42.747425
27	0x40749dca	3.8221307
28	0xc26fe20a	-59.97074
29	0x410447f0	8.267563
30	0x41488178	12.531609
31	0xc124d5b4	-10.302174
32	0xc1f64a80	-30.786377
33	0xc25e6fae	-55.609062
34	0xc20eeb6e	-35.72991
35	0x4184329a	16.524708
36	0x41bdc25b	23.7199
37	0x3fa0389d	1.2517277
38	0xc0dc8d07	-6.8922153
39	0xc19340a3	-18.40656
40	0x3e6a41cc	0.22876662
41	0xc05fdbb4	-3.4977846
42	0xc02f175c	-2.7358007
43	0x40babfb0	5.8358994
44	0xc15d8d83	-13.847049
45	0xc25b160e	-54.771538
46	0x41686c9a	14.526514
47	0xc00f8744	-2.242631
48	0xc2894ef3	-68.6542
49	0x425ea433	55.66035
50	0x3ef029b9	0.46906832
51	0xc320734e	-160.45041
52	0x3e44ad24	0.19206673
53	0x41096654	8.587482
54	0xbfffb2ff	-1.99765
55	0x40903d54	4.5074863
56	0x429a4e01	77.15235
57	0xc30fbd14	-143.73859
58	0xc21291ce	-36.642387
59	0xc2d387a2	-105.76491
60	0xc28f1112	-71.53334
61	0xc3073e6d	-135.24385
62	0xc1e6eede	-28.866634
63	0xc29c985c	-78.29758
64	0xc2080a0b	-34.009808
65	0x40c1a8b9	6.051846
66	0x4104d2df	8.301482
67	0xc3938bbf	-295.09177
68	0xc10b313f	-8.699523
69	0x3e4da99e	0.20084235
70	0xbf01ed7b	-0.5075299
71	0xc0f4e294	-7.6526585
72	0x427b06f2	62.756783
73	0xc1a3b5b2	-20.463718
74	0xc20e4662	-35.568733
75	0xc2e5f183	-114.9717
76	0xc2876077	-67.68841
77	0x41da6873	27.301
78	0xc36a4b3f	-234.29393
79	0x410206e8	8.126686
80	0xc23cd8bf	-47.211666
81	0xc2beec1e	-95.46117
82	0xc28b029c	-69.5051
83	0xc156d093	-13.425921
84	0xc1122b4d	-9.1355715
85	0xc13b3021	-11.69925
86	0xc157864c	-13.470287
87	0xc1c1ec99	-24.240526
88	0xc29292d7	-73.2868
89	0xc1ee88bd	-29.816767
90	0xc2abe1c4	-85.94095
91	0xc302a07a	-130.62686
92	0xc43fd1c2	-767.27747
93	0xc2cd49dc	-102.64426
94	0x41e09e97	28.077436
95	0x41ae954c	21.822899
96	0xc2090a46	-34.260033
97	0xc0213321	-2.5187457
98	0x410f01fd	8.937985
99	0xc0fc1d87	-7.8786044
100	0x3e60c03d	0.21948333
101	0x400e8524	2.2268763
102	0x3f8e03b8	1.1094885
103	0x4219ac83	38.41847
104	0xc0408801	-3.008301
105	0x4146a38f	12.414931
106	0x420d158f	35.271053
107	0x42e03207	112.09771
108	0x423cf815	47.242268
109	0x42ffed46	127.963425
110	0x3f5f2310	0.87162876
111	0xc1f357c6	-30.417858
112	0x4290230b	72.06844
113	0x413bbc61	11.733491
114	0x41233c90	10.202286
115	0x41902a16	18.02055
116	0xc2908d2f	-72.27575
117	0x3e1f0914	0.15530807
118	0x3ed2ad46	0.41147822
119	0xc0d07d16	-6.5152693
120	0xc049cb7e	-3.1530452
121	0x3e4011ea	0.18756834
122	0x424d9b49	51.401646
123	0xc232869d	-44.63146
124	0x42d5178d	106.546
125	0xc138d6c1	-11.55243
126	0xc2d54d01	-106.6504
127	0xc0f9bad9	-7.8040586
128	0x423ea2d5	47.659016
129	0xc2447a5e	-49.1195
130	0x42991f74	76.56143
131	0x40d8c5ba	6.7741365
132	0x422c8918	43.13388
133	0xc1247f9f	-10.2811575
134	0xc0353743	-2.831498
135	0x41b765f6	22.924786
136	0xc10c86d9	-8.782922
137	0x42464cd3	49.575024
138	0xc199085f	-19.129087
139	0x424a91f9	50.64255
140	0xc3810c13	-258.09433
141	0x42c922c3	100.567894
142	0x4163fc93	14.249164
143	0x40025a05	2.0367444
144	0xc26dfabe	-59.494865
145	0x424eef49	51.733677
146	0xc093a2c1	-4.6136174
147	0xc2423e0e	-48.5606
148	0xbe4d8810	-0.20071435
149	0x3ff10d0d	1.8832108
150	0xbfac46a3	-1.3459057
151	0xc283f143	-65.971214
152	0xc1c8f98d	-25.121851
153	0xc348d113	-200.8167
154	0x3f967e07	1.175721
155	0x420587cd	33.382618
156	0x41cec1a6	25.844555
157	0x414599eb	12.350078
158	0x41d44d22	26.537663
159	0x3fed8255	1.8555399
160	0x41b66c4f	22.802885
161	0x419cc457	19.59587
162	0x405ffbdf	3.499748
163	0xc32cdb1f	-172.85594
164	0x3fcfd25a	1.6236069
165	0xbca3f3cc	-0.020013712
166	0xbed72f5a	-0.42028314
167	0xc04a0f93	-3.1572006
168	0x426f272d	59.788258
169	0x40720d85	3.7820752
170	0x41971279	18.88402
171	0xc32fafc5	-175.6866
172	0x4256bdd2	53.68537
173	0x41fa9e5c	31.327324
174	0xc26d3092	-59.297432
175	0x41a1f7ae	20.245937
176	0xbefe5016	-0.49670476
177	0x42f9f24d	124.97324
178	0x4103da97	8.240867
179	0xc0121aa0	-2.282875
180	0xc0cb3705	-6.3504663
181	0xbf8216f5	-1.0163256
182	0x410bcc1f	8.737334
183	0x3e0df723	0.13863806
184	0xc22b938a	-42.89408
185	0x41b7b360	22.962585
186	0x418ab081	17.336184
187	0xc28795f3	-67.79287
188	0xc3512679	-209.15028
189	0xbf496fe7	-0.78686374
190	0x413ac096	11.672018
191	0x41ad0bba	21.630726
192	0xc129ac4d	-10.604566
193	0xc2176370	-37.847107
194	0xc125cf7d	-10.363156
195	0xc0e4fd05	-7.155886
196	0xbe02299b	-0.12711184
197	0x4117f7d3	9.498004
198	0x3f69f129	0.91383606
199	0xc17c44bd	-15.766782
200	0xc08eb562	-4.4596415
201	0xc1b82855	-23.019693
202	0xc28e96a4	-71.29422
203	0xc396bcc7	-301.47482
204	0xc2c4b50d	-98.353615
205	0xc3302717	-176.1527
206	0xc2472fed	-49.796803
207	0x4149550b	12.583262
208	0xc2acacc8	-86.33746
209	0xc02193d8	-2.5246487
210	0xc12392ae	-10.22331
211	0xc27d1320	-63.268677
212	0x41b7f061	22.992373
213	0x3e58e575	0.21181281
214	0xbeabce77	-0.33555958
215	0xc0c91863	-6.284227
216	0x425b0dcc	54.763474
217	0xc1b5c376	-22.72044
218	0xc3033332	-131.19998
219	0xc23877ea	-46.117104
220	0xc30de75e	-141.90378
221	0x41e50688	28.62819
222	0xc20465a6	-33.099266
223	0xc01712af	-2.3605154
224	0xc2a41e23	-82.05886
225	0xc35303a7	-211.01427
226	0xc2b1fc28	-88.99249
227	0x41c8f434	25.11924
228	0x40172b2e	2.3620105
229	0x419fcb54	19.974281
230	0xc28b0edf	-69.529045
231	0xc1fcb0a7	-31.586256
232	0xc17d2690	-15.821915
233	0xc220378d	-40.05425
234	0xc1903225	-18.024485
235	0xc1f361c7	-30.422743
236	0xc2d37f8f	-105.74914
237	0xc30783ed	-135.51534
238	0x3efad9b8	0.4899423
239	0x413884fa	11.532465
240	0xc25767da	-53.851418
241	0xc0a5af40	-5.177643
242	0xc1a83b0e	-21.028835
243	0xc1fe015d	-31.750666
244	0x3db6bb8d	0.08922491
245	0x410159e1	8.084443
246	0x40d45fc2	6.636689
247	0xc2020c8d	-32.512257
248	0xc28cfb4e	-70.49083
249	0xc24ecad3	-51.69807
250	0xc1eb8f12	-29.444859
251	0xc2336966	-44.85293
252	0x41ae243c	21.767693
253	0xbf6dd528	-0.92903376
254	0xbe9f54b1	-0.31119302
255	0xc02b19ba	-2.6734452

hidden2.bias f4 [24]
0	0x408c5c5d	4.386275
1	0x4213fa21	36.994267
2	0x407942c2	3.8946996
3	0x4286c1cd	67.37852
4	0xc1fd3996	-31.653118
5	0xc2ed9b04	-118.802765
6	0xc3126790	-146.40454
7	0x42916d47	72.71343
8	0xc2cd98c3	-102.79836
9	0xc1aa53b1	-21.290865
10	0xc26a0f36	-58.514854
11	0xc202a793	-32.663647
12	0xc29e04f7	-79.0097
13	0x41bf4607	23.909193
14	0x42836a78	65.70795
15	0xc25e1dba	-55.52903
16	0xc29b4a0b	-77.644615
17	0x42d3d40c	105.914154
18	0xc2899bbf	-68.80419
19	0xc2ac9008	-86.28131
20	0x41d39f54	26.452797
21	0x419d1929	19.637285
22	0x41576c6d	13.463971
23	0xc28bbdd7	-69.87078

hidden3.weight f4 [12, 24]
0	0xc37408d8	-244.03455
1	0xc27498ed	-61.14934
2	0x418c7fde	17.562435
3	0xc280120e	-64.03526
4	0xc2f22d53	-121.088524
5	0xc10628f5	-8.384999
6	0xc2c5c765	-98.88944
7	0x400fd7ab	2.2475383
8	0xc3eabde7	-469.4836
9	0xc37d36e9	-253.2145
10	0x41710988	15.064827
11	0xc26f955f	-59.89587
12	0xc2b88622	-92.26198
13	0xc2280304	-42.002945
14	0xc26aa851	-58.66437
15	0xc3c046f1	-384.55423
16	0x41eab7da	29.339771
17	0xc2c8cce3	-100.40017
18	0xc29490d0	-74.28284
19	0xc3b9be65	-371.48746
20	0x42202bb3	40.042675
21	0xc2160890	-37.50836
22	0xc28063b6	-64.19475
23	0xc324c592	-164.77176
24	0xc0863442	-4.193879
25	0xc29cc552	-78.38539
26	0xc2a75ee1	-83.68531
27	0xc2459ed6	-49.405113
28	0xc1e917a3	-29.136541
29	0xc237bc27	-45.933743
30	0xc061b071	-3.5263941
31	0x41e3018e	28.37576
32	0xbefd3d7c	-0.4946097
33	0xc1036863	-8.212985
34	0x409badc3	4.864961
35	0xbfa6b02d	-1.3022515
36	0xc09b7d51	-4.8590474
37	0xc2626749	-56.600864
38	0xc319b7bb	-153.7177
39	0xc172b95b	-15.170253
40	0xc312234e	-146.13791
41	0xc3338c8e	-179.54904
42	0xc2936129	-73.689766
43	0xc08ad628	-4.338642
44	0x40749098	3.8213253
45	0xc1a4d889	-20.60573
46	0xc25463dd	-53.097523
47	0x4191ec96	18.24052
48	0xc31b67ce	-155.40549
49	0xc2dfe2ca	-111.94295
50	0x419f5ee6	19.921337
51	0xc2cdb211	-102.847786
52	0xc288854a	-68.26033
53	0x41ebf4f6	29.49461
54	0xc289785b	-68.73507
55	0x42847ca3	66.24343
56	0xc39884c9	-305.03738
57	0xc2a06873	-80.204
58	0x416f5284	14.957645
59	0xc201d897	-32.461514
60	0xc246ac69	-49.66837
61	0xc2281299	-42.01816
62	0xc371ff17	-241.99644
63	0xc370d3f9	-240.82802
64	0xc28a142e	-69.03941
65	0xc37de2aa	-253.8854
66	0xc234d556	-45.208336
67	0xc36e68a2	-238.40872
68	0x40251eb1	2.5799983
69	0xc239e218	-46.470795
70	0xc3192ee4	-153.18317
71	0xc2b0b45e	-88.35228
72	0xc20808a9	-34.008457
73	0xc386faaa	-269.9583
74	0xc2e9d56a	-116.916824
75	0xc2c7d08c	-99.90732
76	0xc2e7b7ba	-115.85884
77	0xc2d4ca29	-106.394844
78	0xc1aecc40	-21.849731
79	0xc2b8cc77	-92.399345
80	0x3eb9590f	0.3620076
81	0xc2d3e953	-105.95571
82	0xc0ab947e	-5.3618765
83	0xc215fe9a	-37.498634
84	0xc27fba9b	-63.93223
85	0xc37f171f	-255.09032
86	0xc2a7ec44	-83.96146
87	0xc2984c5e	-76.149155
88	0xc2884b8e	-68.14757
89	0xc3087023	-136.43803
90	0xc2c4d25e	-98.41087
91	0x405d01be	3.4532313
92	0xbf0edae5	-0.55802757
93	0x428143f7	64.632744
94	0xc27075f3	-60.115185
95	0xc26dc45a	-59.44175
96	0xc2986f35	-76.2172
97	0xc2e859e5	-116.175575
98	0xc1411775	-12.068227
99	0xc22eeabf	-43.729244
100	0xc1aa7f5a	-21.312183
101	0x41b12963	22.145208
102	0xc1ebdd28	-29.482986
103	0xc1abdcce	-21.482815
104	0xc30475cf	-132.46019
105	0xc28231cd	-65.09727
106	0x4102aa12	8.166521
107	0xc1883c14	-17.029335
108	0xc19b6751	-19.425447
109	0xc15833d9	-13.512658
110	0xc34bfc74	-203.98615
111	0xc2efc37c	-119.881805
112	0xc3563172	-214.19315
113	0xc36e7790	-238.46704
114	0x40dd8bf8	6.923336
115	0xc2ceb7d1	-103.35902
116	0xc009da83	-2.153962
117	0xc1bf3fd6	-23.90617
118	0xc2a73f4f	-83.62365
119	0xc20f028a	-35.75248
120	0xc30a2145	-138.12996
121	0xc29e851c	-79.25998
122	0xc31b6aae	-155.41672
123	0xc2b759b7	-91.675224
124	0xc2a0e60a	-80.449295
125	0xc31999e3	-153.60112
126	0xc258c2be	-54.190178
127	0xc15dca82	-13.86194
128	0xc38a4308	-276.52368
129	0xc26ec156	-59.688805
130	0x40f51f45	7.660067
131	0xc1d5f209	-26.743181
132	0xc258bb4e	-54.182915
133	0xc2e8caaa	-116.39583
134	0xc32ac129	-170.75453
135	0xc358d881	-216.84572
136	0xc32169d2	-161.41336
137	0xc34b2da8	-203.17834
138	0xc3030b98	-131.04529
139	0xc35ae168	-218.8805
140	0x41a41c24	20.51374
141	0xc22c3fb8	-43.062225
142	0xc18e7586	-17.807384
143	0xc2986f48	-76.21735
144	0xbe79dccc	-0.24400634
145	0xc2028662	-32.631233
146	0xc1bd3f72	-23.65598
147	0xc0111ddb	-2.2674472
148	0xc0832777	-4.0985675
149	0xbf870d78	-1.0550985
150	0xbdfa162c	-0.1221126
151	0xc0caf633	-6.3425536
152	0xbe8887f6	-0.2666623
153	0xc053ae33	-3.3075073
154	0xc79c8347	-80134.555
155	0x3e9db290	0.30800295
156	0xbe87f058	-0.26550555
157	0xbeffbdee	-0.49949592
158	0xc2bd27d1	-94.57777
159	0xbebb32b9	-0.36562136
160	0xc304cac7	-132.7921
161	0xc30b09ab	-139.03777
162	0xc0ef2b92	-7.4740686
163	0x3e48c39c	0.19605869
164	0xbf0015f5	-0.50033504
165	0xbe65c59f	-0.22438668
166	0xcad0ee61	-6.8462565e+06
167	0xbe30c083	-0.17260937
168	0x4311bf7f	145.74803
169	0xc27783d0	-61.878723
170	0xc28b527e	-69.66112
171	0xc1b15f18	-22.171432
172	0x42662dc8	57.54471
173	0xc1349189	-11.285531
174	0x425ce63f	55.22485
175	0xc190d662	-18.10468
176	0x43959468	299.15942
177	0x42400ab8	48.010468
178	0xc24f4437	-51.816616
179	0x420ad360	34.70642
180	0xc207d739	-33.96018
181	0xc205f2fb	-33.487286
182	0xc1ce91f3	-25.821264
183	0x4360c012	224.75027
184	0xc29c506a	-78.15706
185	0xc2298558	-42.38022
186	0xbe92b094	-0.28650343
187	0x43670ccc	231.04999
188	0xc1ee99b3	-29.825048
189	0xbfec9ffa	-1.8486321
190	0xc4e4ce43	-1830.4457
191	0xc35c5ece	-220.37033
192	0xc307d6f9	-135.83974
193	0xc30a83a9	-138.5143
194	0xc2f6015f	-123.00268
195	0xc2ebd4ad	-117.91538
196	0xc2880ceb	-68.02523
197	0xc2b57d36	-90.74455
198	0xc2421e65	-48.529682
199	0x419a9d24	19.326729
200	0xc3695ee0	-233.3706
201	0xc2f8f92f	-124.48669
202	0x4132ca93	11.174457
203	0xc1e41910	-28.512238
204	0xc2200e78	-40.01413
205	0xc307ef97	-135.9359
206	0xc399900a	-307.1253
207	0xc357a799	-215.65468
208	0xc392a2d0	-293.27197
209	0xc3ae9e5a	-349.23712
210	0xc2c833f6	-100.10149
211	0xc3373fa6	-183.24863
212	0x4165d441	14.36432
213	0xc1d0d8b0	-26.105804
214	0xc2c0b8c3	-96.36086
215	0xc2818817	-64.7658
216	0xc1fc9943	-31.574835
217	0xc388751f	-272.915
218	0xc307e736	-135.90317
219	0xc07f6d73	-3.9910553
220	0xc1ca1955	-25.26237
221	0xc22e3193	-43.548412
222	0xc16f58b4	-14.959156
223	0xc31c0194	-156.00616
224	0xc28cc883	-70.391624
225	0xc133501f	-11.207061
226	0x3fdb0c97	1.7113217
227	0xc09891f4	-4.7678165
228	0xc155e7b3	-13.369067
229	0xc0ce416c	-6.445486
230	0xc4abdaa1	-1374.8322
231	0xc2458536	-49.38009
232	0x43025c26	130.35995
233	0xc324dc1e	-164.85983
234	0x424fbcac	51.93425
235	0xc25f0ae6	-55.760643
236	0xc12895db	-10.536586
237	0xc1b93557	-23.151045
238	0xc4490e7f	-804.2265
239	0x42b7a5fa	91.82417
240	0x417768f8	15.463127
241	0xc375839f	-245.51414
242	0xc35ff425	-223.95369
243	0xc24b2a79	-50.791477
244	0x4180f500	16.119629
245	0xc1f9b24f	-31.212065
246	0xc0d10f34	-6.533106
247	0xc2253f5d	-41.31188
248	0xbede04a5	-0.43362918
249	0x430b599a	139.35
250	0x40ccea9f	6.4036403
251	0x4134a861	11.291108
252	0x41ccff64	25.624702
253	0xc23aa555	-46.661457
254	0xc4034b1f	-525.17377
255	0x41c83f32	25.030857

hidden3.bias f4 [12]
0	0x41185d44	9.52277
1	0x416c38b5	14.7638445
2	0x42828d8a	65.27644
3	0xc2d30796	-105.51482
4	0x41fe4c69	31.78731
5	0x422272f0	40.612244
6	0xc3c382fb	-391.0233
7	0xc251cd91	-52.45075
8	0x41d506e2	26.62836
9	0x43120787	146.0294
10	0x425b5c1d	54.839954
11	0xc0d23f68	-6.57024

output.weight f4 [5, 12]
0	0xc14cf5ce	-12.810011
1	0xc0d78f6f	-6.736259
2	0x3f7786fb	0.9669034
3	0x4131ecac	11.120281
4	0xc2dc1978	-110.04974
5	0x418f9080	17.945557
6	0xc01d7dba	-2.4607987
7	0xc04a6ad8	-3.1627712
8	0x41836055	16.422037
9	0xc396bd23	-301.47763
10	0xc3134357	-147.26305
11	0xc0796695	-3.896886
12	0x41d20cb4	26.256203
13	0xc1661929	-14.381143
14	0x421c1d7a	39.028786
15	0x417cabc6	15.791937
16	0xc21c49c8	-39.072052
17	0x41796e8d	15.58949
18	0xc08edbe3	-4.4643416
19	0x4124aca1	10.292146
20	0x418a44b4	17.283546
21	0xc3093822	-137.21927
22	0xc2831899	-65.54804
23	0xc088923c	-4.267851
24	0x4022da6d	2.5445817
25	0xbee140f0	-0.43994856
26	0x4047d662	3.12246
27	0xbeeff5c9	-0.46867207
28	0xbeae42b4	-0.34035265
29	0x3f709aba	0.93986094
30	0x3e8ac111	0.27100423
31	0x3f19acd8	0.60029364
32	0x3ff86038	1.9404364
33	0xc04aa59e	-3.1663585
34	0x3e332171	0.17493226
35	0xbd12b5b9	-0.035817835
36	0xc45468e0	-849.6387
37	0xc3102d91	-144.178
38	0x43a5d87d	331.6913
39	0x43758f23	245.55913
40	0x4286ff4b	67.49862
41	0x43ce96c8	413.17798
42	0x41456256	12.336508
43	0xc2896a3b	-68.70748
44	0x420f6d62	35.85682
45	0x43486090	200.3772
46	0x445aad91	874.712
47	0xc22db52b	-43.42692
48	0xc11e4bbf	-9.893493
49	0xc049095a	-3.1411958
50	0x43881aa4	272.20813
51	0x42621a9e	56.525993
52	0x42f4c2d7	122.38055
53	0x43a9f873	339.941
54	0x41ca14e9	25.26021
55	0x40a60fa9	5.1894116
56	0xc1f3ae23	-30.460028
57	0x4354d571	212.83376
58	0x445ab89c	874.8845
59	0x408e1883	4.440492

output.bias f4 [5]
0	0x40c9d535	6.3072762
1	0x418775f2	16.93259
2	0x3f18aefb	0.59642
3	0x4357db8d	215.85762
4	0x40802340	4.004303
